model/model.pth (torch, 18135 bytes, 4 tensors)

linear1.weight f4 [256, 12]
000000 0a 7b 0a bd 32 0b 90 be 40 cd 99 be 98 b2 ad be
       -0.033808745 -0.2813354 -0.30039406 -0.3392532
000010 a4 c6 a8 3b dc 97 d3 3d e8 23 20 bf c0 f7 1a bf
       0.005150633 0.10331699 -0.6255479 -0.60534286
000020 05 ad c9 3e c4 a2 f0 3d a4 28 5e be d2 49 e6 3d
       0.39389816 0.11749795 -0.2169519 0.11244549
000030 d8 c1 cf be b1 8c eb bd f2 5e ac 3e 98 57 a0 3e
       -0.4057758 -0.11501444 0.33666188 0.3131683
000040 cc c1 28 be ec 52 f0 be 11 61 fd 3e 22 62 b4 3d
       -0.16480178 -0.46938264 0.49488118 0.0880778
000050 41 cc 99 3e 65 17 b4 3d bd ef c3 be 7d 09 5c be
       0.30038646 0.08793525 -0.38268843 -0.21487994
000060 a1 d8 81 3e 3c 4b 5c bf 2f 45 d6 be 43 6d dc 3d
       0.25360587 -0.860523 -0.41849658 0.107630275
000070 47 a8 b6 3e c1 06 ea 3e bf f3 24 3e f7 1c 0e 3f
       0.3567526 0.45708278 0.16108607 0.55512947
000080 11 dc 27 3e 32 d2 02 bf 98 5e ce be f8 80 86 3e
       0.16392542 -0.5110198 -0.40306544 0.2627027
000090 4b f8 27 3a 47 2a 26 3e 72 68 f2 3d 2e a1 15 3e
       0.0006407543 0.16227065 0.118363276 0.14612266
0000a0 1a db 02 be 0a 17 a8 3e 1c 98 77 3d ef 6b 94 3d
       -0.12778893 0.32830077 0.060447797 0.07247149
0000b0 fc ee 42 3d 4a ae 64 3e 59 e9 ac be 4f e8 13 be
       0.047591195 0.22332111 -0.3377178 -0.14444087
0000c0 79 22 0e 3e c9 c1 32 be e7 cc 18 3e d8 b6 83 bd
       0.13880338 -0.17456736 0.14921914 -0.06431359
0000d0 72 78 69 3e 4d c9 a2 3d 97 f2 69 be ca a8 40 3e
       0.22799852 0.07948551 -0.22846447 0.18814388
0000e0 7f 14 8f be db 59 35 be f2 ab 2b be eb 62 20 bf
       -0.27945325 -0.17710058 -0.1676481 -0.62650937
0000f0 0b 73 00 3e d3 66 b5 be c3 74 05 3e 18 15 94 be
       0.12543885 -0.3543001 0.13032822 -0.28922343
000100 97 68 c3 bd f2 a1 f0 3e 3b f2 d9 3e 35 65 b5 3d
       -0.09541433 0.46998554 0.4256762 0.08857194
000110 c8 6b a0 3d 62 7f 1e 3e 31 f8 22 3e 3d f5 48 bf
       0.07833058 0.1547828 0.1591499 -0.78499204
000120 4e 87 4e bd a9 a7 24 3b 6e 1c 37 3e df 84 31 bf
       -0.050422005 0.0025124347 0.17881939 -0.6934337
000130 ae 86 3a 3e 14 f0 ca 3e 1b 6f fc 3e f3 e7 88 3e
       0.18215439 0.3963629 0.49303517 0.26739463
000140 23 c2 08 be d1 26 cf 3d 46 33 2d 3e 45 1f 7c bf
       -0.13355307 0.101148255 0.1691409 -0.98485214
000150 4c 10 2c bf ba 2a 0d 3f 03 8c 9b be f0 ac 8b 3e
       -0.6721237 0.5514332 -0.30380258 0.27280378
000160 b9 e7 78 3d 22 36 ef 3d ca bd 66 be 62 f7 91 bc
       0.060767863 0.11680247 -0.22533336 -0.017818157
000170 d1 69 9c be 13 62 21 be a3 6f 47 bf a7 e4 dc 3e
       -0.30549482 -0.15760069 -0.7790472 0.43143198
000180 82 11 48 be 7c 6c 72 bf 6c 6a f0 be ce ab 7f 3e
       -0.19537929 -0.94696784 -0.46956193 0.24967882
000190 b7 b6 80 3d f5 c8 f8 3e 69 2d f6 bd 9f 0e dd 3e
       0.0628485 0.48590818 -0.1202038 0.43175218
0001a0 f2 e2 69 be 27 31 df be da 30 41 bf 86 d0 a0 3e
       -0.22840479 -0.43592188 -0.75465167 0.3140909
0001b0 f8 74 59 bf b5 02 62 3e 80 8f a4 3e 7c 71 c0 be
       -0.84944105 0.22071345 0.32140732 -0.37586582
0001c0 a6 80 e9 3d bf d0 cf 3e b6 cf c6 3d ab a7 80 bc
       0.11401491 0.40588948 0.097075865 -0.01570495
0001d0 0c 20 8e be b8 53 53 be 71 6f 03 3f c8 98 09 bf
       -0.27758825 -0.20637405 0.5134192 -0.5374875
0001e0 fb 54 a5 3e 37 b4 14 bf ab 7e d5 3e 91 03 08 be
       0.32291397 -0.58087486 0.41698202 -0.1328261
0001f0 49 c1 ee be fb 14 3e 3e 55 61 bb be ba 3c 3c 3e
       -0.4663184 0.18562691 -0.36597696 0.1838254
000200 2e 65 c2 be 87 d0 cb 3e 80 3b 6a 3d fa 95 37 bd
       -0.3796782 0.3980753 0.05718565 -0.044820763
000210 9b 96 07 bf d6 0d 3c bf 17 a3 20 bf 21 85 29 3d
       -0.5296418 -0.7345861 -0.62748855 0.041386727
000220 b1 10 d6 3e 25 07 a6 3e dc ea f4 3d 90 97 07 3f
       0.4180961 0.32427326 0.11958858 0.5296564
000230 9a ec ec 3a 73 92 b3 ba 45 28 a3 be da d7 54 3e
       0.0018075884 -0.0013700261 -0.3186666 0.20785466
000240 d6 ef 88 be 81 47 49 bf cc f7 c5 be 68 63 12 3e
       -0.2674548 -0.7862473 -0.38665617 0.14295733
000250 fa 11 a0 3e 15 a6 01 3f e7 71 62 bd 8b 5a 59 3e
       0.31263715 0.50644046 -0.055284407 0.21225946
000260 95 b5 36 3e 10 9b 6e be ab 30 2f be 8d 71 11 3d
       0.17842706 -0.23301339 -0.17108409 0.03550868
000270 11 39 42 3e 4a da fb be ea 05 d9 be 0f 43 b9 3e
       0.18967082 -0.4918998 -0.42387325 0.36183974
000280 85 bf 9b 3e c3 99 96 3e d8 ea af 3e 78 10 fc 3e
       0.30419555 0.29414186 0.3435886 0.49231315
000290 7a 05 ce bc 45 70 c0 be ce 9f 4c bf 71 61 85 3a
       -0.025149096 -0.37585655 -0.7993134 0.0010176135
0002a0 74 8b 2b be 95 ad 75 3e e8 bb 2c 3d ff 27 51 be
       -0.16752416 0.23991998 0.04217139 -0.20425414
0002b0 b8 df 55 bd 22 ce 25 be 06 41 97 bd 8e 28 07 be
       -0.052215308 -0.16191915 -0.07385449 -0.13199064
0002c0 40 ad 5a be 8c 33 74 be 1b 20 9b 3c 10 5e 0d be
       -0.21355152 -0.23847789 0.018936208 -0.13805413
0002d0 85 91 88 3e aa 7a 1b bf 05 32 b1 be 97 e5 e3 be
       0.26673523 -0.60734046 -0.34608474 -0.445111
0002e0 97 57 00 3f 65 97 e5 3e 99 29 af 3e 24 3a 58 3e
       0.5013365 0.44842067 0.34211424 0.21115929
0002f0 11 e0 9a 3e a5 c8 05 bf 4c fb a6 be 78 94 99 be
       0.30249074 -0.52259284 -0.326136 -0.29996085
000300 d6 64 c5 bd 8c 3f 7e 3d ef 85 74 3d 28 a5 c4 3d
       -0.096383736 0.06207232 0.05969804 0.096018136
000310 80 a8 ee be 1a c7 dc be a4 58 b9 be 8f 11 1d be
       -0.4661293 -0.43120652 -0.3620044 -0.1533873
000320 27 0c 59 3e 3a ea 7b 3e f1 d6 12 bf 0a 5b 6a 3d
       0.21196042 0.24601069 -0.57359225 0.057215728
000330 d0 72 b8 be 4f f5 bf bd 3a c1 0b 3f 3b 71 be 3d
       -0.36025095 -0.09372961 0.54591715 0.09298941
000340 33 a3 d8 be 04 94 79 3d 93 7c f2 3e 4e 13 a3 3e
       -0.4231201 0.060932174 0.47360668 0.31850666
000350 0d a8 ca 3e 47 bc 99 3d 1d a7 f9 be 48 2e 4f bd
       0.39581338 0.07506614 -0.4876031 -0.050581247
000360 72 9f 50 bc 78 0c b6 3d 0c 32 bb bd 56 60 02 3b
       -0.012733327 0.08889097 -0.09140405 0.0019893846
000370 ce a3 92 3e 53 ad d2 3d f5 ce c5 3e bb 80 8d 3e
       0.28640598 0.10286965 0.38634458 0.27637276
000380 30 a0 80 bc fe 50 c6 bd 60 7c f0 bd 9c 6e 59 be
       -0.015701383 -0.09683417 -0.11742473 -0.212336
000390 de 86 01 be b5 92 22 bf c2 10 07 bf 73 e0 87 be
       -0.12649104 -0.6350511 -0.52759945 -0.2653843
0003a0 ca f0 e3 3e 5b 35 ff 3e 86 be 4c 3e 88 56 bb 3e
       0.44519645 0.49845394 0.19994554 0.36589456
0003b0 10 f6 23 be 36 f1 99 be 9c a3 ae be 96 fb 2d be
       -0.16011834 -0.30066842 -0.341092 -0.16990504
0003c0 f0 2a bb 3d 2e 51 8a 3e 21 d6 2a be cf b8 a5 3e
       0.09139049 0.2701506 -0.16683246 0.3236756
0003d0 72 56 56 be 95 ea b7 3e d5 78 53 3e ac 6d 0c be
       -0.20931414 0.3592116 0.20651563 -0.13713712
0003e0 15 dd 74 bd dc a6 b2 b9 2c bc 5b bd 92 e1 08 3e
       -0.059781153 -0.00034075126 -0.05364625 0.13367298
0003f0 67 de 04 bf bd 98 99 3e fc f4 11 3f 73 d0 a6 be
       -0.5190186 0.29999343 0.5701444 -0.3258091

linear1.bias f4 [256]
000000 3d 9f 20 be 67 f9 33 3d 67 fc 09 bd 0a 78 47 3e
       -0.15685745 0.04393902 -0.033687975 0.19479385
000010 dc 62 c6 3d 68 27 44 be 85 13 27 bc b0 fd 21 3b
       0.09686825 -0.19155657 -0.010197525 0.002471786
000020 03 08 41 3d 99 95 84 be 80 93 d3 bc e8 bc a9 be
       0.04712678 -0.25895384 -0.02582717 -0.33151937
000030 c4 7b d4 bd 87 b7 6a bd 34 ce 87 be fb e4 4d be
       -0.10375169 -0.05730393 -0.26524508 -0.2010688
000040 fb fa bd 3e 91 e2 6d be e8 05 91 3e 28 f3 f8 be
       0.37105545 -0.2323096 0.2832482 -0.48623013
000050 d5 2e a8 3e e2 16 fc bd 76 98 0a 3e a2 cc a8 3e
       0.3284823 -0.12309052 0.13534722 0.32968622
000060 b0 e5 8a 3e 38 50 15 be d6 22 c3 bd f4 ea 5c bd
       0.27128363 -0.14581382 -0.09528129 -0.053935006
000070 9d a5 ed bd ce 97 cf 3d e9 a6 b7 3e 4b 6a 51 bd
       -0.11603854 0.10136376 0.3586953 -0.05112676
000080 36 3e a0 3c 90 34 1f be 67 1f b5 bc 49 f2 92 bd
       0.019560914 -0.15547395 -0.0221097 -0.071751185
000090 ca 13 a2 3c 72 4d 17 be 08 3c aa be 46 2c ef be
       0.019784827 -0.14775637 -0.33248925 -0.46713465
0000a0 ab a6 26 3e eb 6b a1 3e 5b a2 28 3e fa a3 b8 3e
       0.16274516 0.31527647 0.16468184 0.36062604
0000b0 09 91 05 be 5e a4 a4 3d 04 03 e2 3b 09 72 59 bd
       -0.13043608 0.08039163 0.006897332 -0.053087268
0000c0 c6 b8 01 be 91 a7 a4 bd af d4 85 3d b2 cf e7 bc
       -0.12668142 -0.08039773 0.06534707 -0.028297279
0000d0 5a 33 7d be ee 8c 5b 3e b9 15 23 3e bd d2 3b 3e
       -0.2472662 0.21440479 0.15926255 0.18342109
0000e0 76 a7 3a 3e cb 49 57 3f 9f 70 6c 3f aa c8 9c 3e
       0.18227944 0.84096974 0.92359346 0.30621845
0000f0 35 e8 88 3c 1b b3 5c be 2c 49 bd be 0c 73 bc bb
       0.016712287 -0.21552698 -0.36969888 -0.0057510193
000100 11 f6 68 be 1c 2f b4 3b 84 ea a9 3e ce 57 01 bd
       -0.22750117 0.00549878 0.33186734 -0.031577878
000110 4a 72 e9 3d e0 9d 36 3e d3 10 7f bd d1 58 76 be
       0.11398752 0.17833662 -0.062271904 -0.24057318
000120 a3 63 27 be 72 24 83 be cd 34 ee 3c 5e fc 04 be
       -0.16346602 -0.25613743 0.029077912 -0.12986895
000130 09 46 04 3e a3 6a 54 be 1e fe 2a bd e1 ee b7 bd
       0.12917341 -0.20743804 -0.04174625 -0.089811094
000140 2f 15 15 be 46 7e 65 3d b3 9a 1d be 77 87 c9 be
       -0.14558862 0.056028627 -0.15391044 -0.39361164
000150 41 8d 23 bd c7 0c 59 3d 04 e4 f4 3d f2 b6 48 bd
       -0.039929632 0.0529907 0.11957553 -0.049002595
000160 30 b6 e4 bd b5 28 21 be 70 95 d2 bd 64 2a 23 3d
       -0.11167562 -0.15738185 -0.10282409 0.03983535
000170 72 36 04 3e 99 2f 63 3e 3f 51 ec 3d 63 99 4a be
       0.12911394 0.22186126 0.11538934 -0.19785075
000180 00 98 e2 bd ac dc af 3d 64 4c 95 bd 09 fc 6a 3e
       -0.11064148 0.08587012 -0.07289961 0.22947706
000190 ef 39 20 3d 06 97 04 3e 2b eb 85 3e 1e 33 41 3e
       0.03911775 0.12948236 0.2615598 0.18867156
0001a0 b2 cf 84 be 7b 74 15 bb 23 cf 28 bd 4e c0 8b 3e
       -0.2593971 -0.0022805023 -0.041213166 0.27295154
0001b0 d9 29 34 bf be 9d 84 3e 1e c2 2c be e6 dc 61 be
       -0.70376354 0.25901598 -0.16870925 -0.22056922
0001c0 54 6b 34 be 82 14 f7 bd f0 32 d8 bd b6 65 f5 3d
       -0.17619067 -0.120644584 -0.105565906 0.119822904
0001d0 44 6e ae 3e a1 3a 22 3e b7 58 ee 3c fd 9c 1a 3e
       0.340685 0.15842678 0.029095037 0.15098949
0001e0 59 0a 8b bd e6 a4 51 bd 00 73 5d 3e f9 bf d6 3e
       -0.06789083 -0.05118265 0.216259 0.4194334
0001f0 1b d6 ab 3d 42 14 b0 be df 52 ac be 17 ed d6 3d
       0.08390447 -0.34390455 -0.33656976 0.1049444
000200 db 76 9a 3e 14 f0 a4 bd 54 c8 da 3e 72 58 0d bd
       0.30168805 -0.08053604 0.42730963 -0.034508176
000210 32 92 1b 3e 3a ca 78 3d 4a 19 81 3d db 64 05 bf
       0.15192488 0.060739733 0.06303652 -0.5210702
000220 81 d7 22 be 76 4d 22 3e 19 39 00 bf 86 b5 a3 3e
       -0.1590252 0.15849862 -0.50087124 0.3197443
000230 70 63 26 3f 97 67 b8 3d eb d7 38 3e 67 67 0b 3d
       0.6499548 0.09004133 0.18051116 0.03403416
000240 e2 fa 30 bf 3b 38 9a be cc c1 5f 3d 9f 9c f6 3d
       -0.69132817 -0.30121025 0.05462818 0.12041592
000250 d7 77 18 3e 46 0d d4 bb 2c 7c c6 3e e6 06 e5 bd
       0.14889465 -0.006471309 0.3876661 -0.111829564
000260 45 00 0e 3f 89 6c 08 3e 5a 7d 27 bf b1 38 24 3e
       0.5546916 0.13322653 -0.65425646 0.16037251
000270 61 24 8a bd c2 d7 fc 3b d5 9a cb 3d a4 82 a2 be
       -0.0674522 0.00771615 0.09941641 -0.31740296
000280 00 df 6b 3d e0 02 cd 3b 80 22 5b 3e d7 4d 88 be
       0.057585716 0.0062564462 0.2139988 -0.26621887
000290 21 c0 3a bd d6 2f c8 be 1e 8f 28 3e 1f 15 8d be
       -0.045593385 -0.39098996 0.16460845 -0.27555177
0002a0 f5 65 13 3e 77 01 10 be ea ba d8 3e 0d bf 8d bd
       0.14394362 -0.14063059 0.42330104 -0.06921206
0002b0 31 13 54 3e b0 e1 d3 be 5a d7 6a 3c a4 b7 e6 bd
       0.20710446 -0.41383123 0.01433357 -0.112654954
0002c0 58 14 91 3e f3 a8 94 3d f3 eb 23 be c9 32 5a 3e
       0.28335834 0.07258787 -0.16007976 0.21308435
0002d0 a6 58 15 bd dc df 35 be 0f f1 4c 3d 57 a7 18 3f
       -0.036461495 -0.17761177 0.05003458 0.5963034
0002e0 ea 45 e9 bd 4a 96 f8 bd cb a7 0b bf 02 5c 96 be
       -0.11390288 -0.1213804 -0.54552907 -0.2936707
0002f0 87 1c bf 3e 6c d9 ac be 12 03 23 3c 93 70 b4 3e
       0.37326452 -0.3375963 0.0099494625 0.35242137
000300 30 98 90 3e ae 9d 7e bd 2d 81 81 be e2 49 ed 3d
       0.2824111 -0.062162094 -0.25293866 0.11586358
000310 d1 87 c5 3e d7 24 41 3e 32 fb a3 bd f5 00 50 bc
       0.38580182 0.1886171 -0.08006896 -0.012695541
000320 b6 2b 0d bf 18 d7 ae 3d 0c 6d 09 3f 8d e9 46 3d
       -0.5514482 0.085371196 0.5368202 0.048562575
000330 3b e3 fa bd 2b 2b 0f 3f f4 69 d6 3d 1f 1e a4 be
       -0.12250372 0.55925244 0.10469428 -0.3205423
000340 9a 97 78 be 4d ad 82 3e f2 2d a6 3e 64 09 ba 3d
       -0.24276581 0.25522843 0.32456928 0.09083822
000350 e3 84 da 3c c6 00 ad 3e de c7 84 be 31 84 b9 3e
       0.026674693 0.33789653 -0.25933737 0.36233667
000360 3b 67 c4 be ca 6a 90 be 4e 7a 84 3d a0 7b d2 bc
       -0.3836001 -0.28206474 0.0646864 -0.025693715
000370 fd a9 9c be 86 4e 36 be 72 da 48 bd ca 74 ac be
       -0.3059844 -0.17803392 -0.04903645 -0.33682853
000380 7d eb 97 bd 70 30 ed 3d 54 41 9c be 52 f9 1e 3d
       -0.07417963 0.11581504 -0.3051859 0.03881199
000390 54 8f 5b be 85 1a a5 bd fa 2d 11 3e db 06 1b bf
       -0.21441394 -0.08061699 0.14177695 -0.60557336
0003a0 10 74 cb 3d 65 01 54 be dc e4 ac 3c 2e f9 9b be
       0.099342465 -0.20703657 0.021105222 -0.30463547
0003b0 16 75 30 bc ee 0b 0b be f2 4d 84 be 23 81 88 be
       -0.010770103 -0.1357877 -0.25840718 -0.26661023
0003c0 2a 03 23 bf a6 3c 56 3e 33 e1 23 be ff a0 3c be
       -0.636767 0.20921573 -0.16003875 -0.1842079
0003d0 02 8f d6 bd 0b 7c ce 3d 08 31 be 3d 9e e6 1a bd
       -0.10476495 0.10082253 0.09286696 -0.03781759
0003e0 53 9d 7a bc df 9a e6 bd 45 55 e5 3d 65 62 d0 3c
       -0.015296298 -0.11260008 0.111979045 0.025437543
0003f0 99 de e7 3e ba 41 b8 be b8 67 e4 3d 01 82 ba 3d
       0.45287016 -0.35987645 0.11152595 0.091068275

linear2.weight f4 [3, 256]
000000 b9 ad 91 3d e4 8c 6b be c2 5b 01 3f bb 89 28 3d
       0.07113213 -0.23002964 0.50530636 0.041146975
000010 fb 22 c8 bc e8 c8 8f 3e 95 74 e0 3e e3 0c c7 3e
       -0.024430742 0.28082967 0.43838945 0.3887702
000020 4e d2 cf 3e 4d dc dd 3e 6e f1 c5 be c1 48 fd 3e
       0.40590137 0.4333214 -0.3866076 0.4946957
000030 a9 cb a7 3e a2 eb b8 3e e5 07 7a bb a0 dc 0c 3f
       0.32772568 0.36117274 -0.0038151678 0.5502415
000040 0a f6 6c 3d 34 03 e3 be 6e 02 f3 3d 40 f4 ec 3e
       0.05785183 -0.4433838 0.11865698 0.46280098
000050 13 eb 1f 3d 9f c0 8d be c3 7d c6 3e 5c 03 4b 3f
       0.039042544 -0.2768602 0.38767824 0.79302
000060 84 e9 da 3e a9 81 38 bd ce 5d ac 3e 17 ec 5f be
       0.42756283 -0.04504553 0.33665317 -0.21867405
000070 32 67 b7 be b7 0f b1 3e f0 3f af 3b 05 ce 9b 3e
       -0.3582092 0.34582302 0.005348198 0.30430618
000080 57 be 5a 3e 6d ce 32 3e cb 47 e4 3e 7a 1c 1f 3f
       0.21361671 0.17461558 0.44586024 0.62152827
000090 e1 51 e5 3e 51 4b 55 bf a6 8a 55 3e bb 0b ec 3e
       0.4478903 -0.8331805 0.20853671 0.461027
0000a0 e6 cd 0d 3f d9 33 1c 3d 3b 83 f8 bd 34 5d e5 3d
       0.553923 0.038135383 -0.12134405 0.11199418
0000b0 78 4a 66 3e 41 21 6f 3e 4d 55 86 3e ff 00 f9 be
       0.22489345 0.23352529 0.26236954 -0.48633572
0000c0 4c 6f ab be de 7c c1 3e e9 a4 fe 3d 79 49 a7 be
       -0.3348335 0.3779058 0.12433798 -0.32673243
0000d0 61 a8 2c bf 27 4e 4d 3e 55 6a b5 3d a3 4d 1f 3d
       -0.67444426 0.20049344 0.08858172 0.0388924
0000e0 33 9e 25 3d 79 e2 9b 3f 29 ae 94 3f dd 0c 70 b9
       0.040434074 1.2178489 1.161565 -0.00022892976
0000f0 2f 8b a0 3e ec 7f e9 3c 2c 4a 09 3f 55 5f 11 3f
       0.3135619 0.02850338 0.536288 0.5678609
000100 82 6a 35 3f 6f eb 24 3f 0e e3 6f 3e a1 63 db 3d
       0.70865643 0.64421743 0.23426458 0.10712362
000110 4f c2 86 be 4f d3 b3 3d 7d 92 04 3f 78 cf bd 3e
       -0.2632012 0.08780538 0.51786023 0.3707235
000120 cf 8f 3e 3e a4 cb 94 3c be 49 ce be 87 04 cb bc
       0.18609546 0.01816351 -0.40290636 -0.024782432
000130 40 3b 87 be 3a dc b0 be ec da c7 be f7 63 26 3f
       -0.26412392 -0.3454302 -0.39034212 0.64996284
000140 64 48 91 3c 63 e1 7f 3e fe 4e a6 3c 7a 13 1e 3f
       0.017734714 0.24988322 0.020301338 0.6174847
000150 4e dd 08 3f 0f b6 c3 bb f7 6c c2 be f3 f3 32 be
       0.53462684 -0.005972631 -0.3797376 -0.17475872
000160 a3 39 92 3e 2f e5 e0 3e c8 57 c0 be 55 b0 9a 3e
       0.28559598 0.43924853 -0.37566972 0.30212656
000170 14 4a 64 be 18 ee cc 3d 55 a7 8a 3e dc df cc bd
       -0.22293884 0.1000635 0.2708079 -0.10003635
000180 30 9b 07 3f 19 68 28 bf 8d 48 15 3f 6e a9 0f be
       0.5297117 -0.6578384 0.5831383 -0.14029476
000190 99 de a5 3e 00 89 18 bf 69 15 5e 3c 19 23 af be
       0.3239639 -0.59584045 0.013554909 -0.34206465
0001a0 db 05 3c 3e 7a 94 20 bf 2f 95 af 3d fe 00 b3 3d
       0.18361609 -0.6272656 0.085733764 0.087404236
0001b0 7c 1e 82 3f 87 2e 45 3f e5 86 58 3f c1 a1 bd 3d
       1.0165553 0.7702412 0.8458083 0.09259368
0001c0 91 6a 40 bf 12 01 10 3f cd b7 29 bf 76 b4 7c 3c
       -0.7516261 0.56251633 -0.6629608 0.015423885
0001d0 f7 96 46 3d b1 0c d7 3e b5 08 57 3e f8 9f e0 be
       0.048483815 0.4200187 0.20999415 -0.43872046
0001e0 90 68 97 be 4f 48 20 bf 20 80 e1 3d c5 1a 3e 3e
       -0.29571962 -0.62610334 0.11010766 0.185649
0001f0 1b 06 94 3e df 91 a4 3e f2 af d2 be 70 59 23 3e
       0.28910908 0.3214254 -0.4114986 0.15952086
000200 90 43 31 3f 63 bc 24 3e 89 3b af 3e 0e 30 ad 3e
       0.6924372 0.16087489 0.3422511 0.33825725
000210 16 99 8e 3e cb e3 c8 bd 41 8f 0e bf 5d 6a 84 3f
       0.2785117 -0.09809073 -0.5568734 1.034496
000220 b4 85 83 3d 3f c3 d1 3e 00 7f 80 3f 87 1d e6 bd
       0.06421986 0.40969273 1.0038757 -0.11236101
000230 c1 5b a7 3e 8f 2b 53 bf 8d e1 ff bc 21 c7 24 bb
       0.3268719 -0.8248834 -0.03123548 -0.0025143104
000240 f6 25 95 3f 58 a3 6e 3e c2 29 2b bf 68 ae a1 3c
       1.165221 0.23304498 -0.6686059 0.019736484
000250 b0 ce 26 bf 65 30 22 bd d7 8e 84 3d 94 82 5a 3e
       -0.6515913 -0.039596934 0.06472557 0.21338874
000260 a8 5b 81 3f 0a e2 e6 be fc d6 60 3f 88 70 7d 3b
       1.0106096 -0.4509433 0.8782804 0.003867181
000270 41 f3 1d bf 24 ff 23 bf ef 00 fd bd e5 c0 a1 3e
       -0.616993 -0.6406119 -0.12353694 0.3159248
000280 50 a2 56 3e 70 02 82 3e 0f b2 b7 3b ca c1 c8 3e
       0.20960355 0.25392485 0.005605943 0.3921035
000290 24 10 78 3e f2 9f 00 3f b3 b0 49 3e e0 55 08 3f
       0.24224907 0.5024406 0.19696312 0.53256035
0002a0 51 68 17 bf 5c 2d c5 3e 35 3e 23 3d b5 2d 30 bf
       -0.5914355 0.3851117 0.039854247 -0.68819743
0002b0 16 23 1b 3d d2 e9 3c 3f f8 40 82 be ed c3 e9 be
       0.037875257 0.7379428 -0.25440192 -0.45657292
0002c0 ef d0 61 bd 2c 6e 2e 3d 41 70 a1 be a4 0b cc 3d
       -0.055130895 0.042585537 -0.31530955 0.09963158
0002d0 04 b9 3d 3f 26 4f c0 bd 52 7f 2b 3e c1 97 09 3f
       0.74110436 -0.09390096 0.16747788 0.53747183
0002e0 ca f3 0c 3f fc e5 39 3f f6 b1 75 3f 68 7c 36 3d
       0.5505949 0.72616553 0.9597467 0.044552237
0002f0 c4 b5 22 3e ef 58 e3 3e 3b 14 77 bb 02 47 65 bd
       0.1588965 0.44403788 -0.0037701267 -0.05597592
000300 5f 0a e8 3d d4 93 03 3c c8 44 07 3f 46 e4 22 3e
       0.11330103 0.00803085 0.52839327 0.15907392
000310 ea 77 33 3f 84 1e 89 3e 04 59 e9 bd 4d 9e fd 3e
       0.7010485 0.26781094 -0.113939315 0.49534836
000320 b6 03 27 3f af 3d df 3e 42 25 1e 3f 9a e3 2c bf
       0.6524004 0.43601748 0.617756 -0.6753479
000330 0b d1 e6 3e be 81 1a 3f a0 ff a3 3c 2e 3b 34 3f
       0.45081362 0.6035422 0.020019352 0.704028
000340 4d b9 01 3e 46 6a 0d be 6d 7c 35 3f c4 b8 3f b9
       0.12668343 -0.13810071 0.70892984 -0.0001828401
000350 8d 06 27 be 1f 0d 4d 3e 5d f8 f6 3e 85 b9 38 3e
       -0.16311093 0.20024537 0.4823636 0.1803952
000360 6b 4a cc be 08 3c 9d 3d 2d c7 09 3f cb 32 b8 be
       -0.39900526 0.07677466 0.53819543 -0.35976252
000370 60 91 2f 3f 76 98 b2 be c3 c4 ba 3e 41 c3 b3 3e
       0.685812 -0.34881943 0.36478242 0.35109904
000380 94 bf 32 3e f0 c1 43 3e 1a 7d 09 bf e3 fe 96 3e
       0.17455894 0.1911695 -0.53706515 0.29491338
000390 8d 14 a2 be 9d af 1f bf 30 6c 02 3e 81 e4 9e 3f
       -0.31656304 -0.6237734 0.12736583 1.2413484
0003a0 88 cc 7e bc eb 33 ad 3e 7d 2b 41 3e f0 ca 23 3f
       -0.015551694 0.33828673 0.18864246 0.63981533
0003b0 d8 b5 9d 3e fc 0e c0 3e b6 69 9b be 3d 2e 45 3f
       0.30802798 0.37511432 -0.3035409 0.7702368
0003c0 3f 77 77 3f cf 24 e7 3e ba b4 c2 3e c7 71 4b bf
       0.9666633 0.4514527 0.38028508 -0.79470485
0003d0 cf c9 d1 be 0d d8 b2 3e 16 5f ba ba 10 e4 85 3d
       -0.4097428 0.3493046 -0.0014219012 0.0653764
0003e0 05 12 02 bf 96 39 53 3d 7c 7d 1d 3d 38 d8 d6 bd
       -0.50808746 0.05156859 0.03844975 -0.10490459
0003f0 9f 29 70 3d 75 71 9a 3e 22 84 7f 3d 54 34 5d 3d
       0.058633443 0.30164686 0.06238187 0.054004982

linear2.bias f4 [3]
000000 5a 31 07 3e 5a d6 56 3e 68 b9 a2 3e
       0.1320242 0.20980206 0.3178208
